chp_12/iris_classifier_state.pt (torch, 2688 bytes, 4 tensors)

layer1.weight f4 [16, 4]
0.4388337 -0.64435166 1.620894 1.23381 -0.19661619 0.017943436 -1.9350781 -1.173112
0.071272105 0.7763279 0.9924128 0.602299 0.15815303 0.27094993 1.5633216 1.1334009
0.3715063 -1.1572524 2.2335813 0.8662595 0.02528338 -0.17222473 1.7129393 0.84394914
0.652214 -1.6243585 2.804009 0.5054104 -0.26516157 0.69907874 -1.8499035 -0.98546636
0.09227723 0.3410762 -2.3918865 -1.2859575 0.12897107 1.339209 -0.98634547 -0.29263303
0.50894725 -1.2892165 2.1557608 0.8017216 -0.13013572 0.07079433 -2.076013 -1.1772658
-0.14893608 0.077087566 -2.2752433 -1.490313 0.41123688 -1.3311018 2.2003045 0.84732676
0.81965375 -1.9933147 2.8265064 0.21170366 0.29322 -1.2512985 2.4584394 0.7363968
00000000: d0ae e03e 3bf4 24bf 7479 cf3f 7ced 9d3f
00000010: c155 49be 1dfe 923c a4b0 f7bf 8928 96bf
00000020: 1cf7 913d 6dbd 463f c40e 7e3f 4430 1a3f
00000030: def2 213e f3b9 8a3e ec1a c83f 4813 913f
00000040: 1336 be3e d920 94bf fff2 0e40 2fc3 5d3f
00000050: 171f cf3c ae5b 30be 9841 db3f 0d0d 583f
00000060: 7ff7 263f fbea cfbf e274 3340 9362 013f
00000070: 42c3 87be d3f6 323f a3c9 ecbf 8647 7cbf
00000080: d8fb bc3d 8aa1 ae3e ab14 19c0 419a a4bf
00000090: fe10 043e 336b ab3f 2381 7cbf ffd3 95be
000000a0: 5e4a 023f 0c05 a5bf fcf7 0940 a03d 4d3f
000000b0: 4c42 05be 9efc 903d 66dd 04c0 a5b0 96bf
000000c0: b382 18be 16e0 9d3d 969d 11c0 94c2 bebf
000000d0: a48d d23e 8b61 aabf cad1 0c40 68ea 583f
000000e0: d4d4 513f f024 ffbf 7be5 3440 d8c8 583e
000000f0: ef20 963e 8d2a a0bf 1257 1d40 8084 3c3f

layer1.bias f4 [16]
-0.35636497 0.41754842 -0.019766241 -0.14296822 -0.23746972 -0.38534194 0.6258749 0.450896
0.27639365 -0.04636263 -0.020410135 0.47615036 0.41865712 0.39613006 -0.0006815905 0.66438437
00000000: 7875 b6be e8c8 d53e d0ec a1bc 4366 12be
00000010: 432b 73be 8a4b c5be 5639 203f d7db e63e
00000020: 7883 8d3e bee6 3dbd 2833 a7bc fbc9 f33e
00000030: 3a5a d63e 8fd1 ca3e c4ac 32ba 1815 2a3f

layer2.weight f4 [3, 16]
-1.2376161 0.8782207 -0.1577563 -0.5758643 -1.471828 -0.7884629 -1.6101409 1.4715991
0.8786572 0.6900611 -1.2088531 0.78571963 0.91522664 -1.0943775 -1.5999308 -1.7401458
-0.19254386 0.26511896 -0.37170312 -0.45005527 0.09968824 -0.39529827 0.1817635 0.097792365
0.1462647 -0.28282407 0.19954753 0.27252585 0.5516807 -0.024596188 0.1536637 0.08691193
0.8870579 -1.359308 0.3472943 0.75839806 0.8522077 0.7108473 0.22885415 -1.4213678
-1.4425784 -0.19464001 0.7453016 -1.3709005 -1.1666541 0.30910182 0.14462373 0.5461618
00000000: 346a 9ebf 12d3 603f de8a 21be d86b 13bf
00000010: dc64 bcbf b4d8 49bf 1919 cebf 5c5d bc3f
00000020: aeef 603f d8a7 303f b3bb 9abf ec24 493f
00000030: 4b4c 6a3f 9014 8cbf 88ca ccbf 19bd debf
00000040: 382a 45be acbd 873e df4f bebe a56d e6be
00000050: 5929 cc3d 8964 cabe 3620 3a3e 5d47 c83d
00000060: 6ac6 153e 51ce 90be 3056 4c3e 8288 8b3e
00000070: f23a 0d3f f27d c9bc 045a 1d3e e2fe b13d
00000080: 3a16 633f cefd adbf 8fd0 b13e 6026 423f
00000090: 492a 5a3f 17fa 353f be58 6a3e 61ef b5bf
000000a0: 69a6 b8bf b64f 47be 16cc 3e3f ab79 afbf
000000b0: ec54 95bf 9842 9e3e 3e18 143e 42d1 0b3f

layer2.bias f4 [3]
0.400593 0.1257369 -0.20132193
00000000: 871a cd3e 2dc1 003e 5627 4ebe
